src/model/simple_model.pth (torch, 17361 bytes, 6 tensors)

model.0.weight f4 [64, 21]
00000000: e0a2 5cbd 7d73 953d 3c42 1a3b 0fa9 0b3e
00000010: a0ec 02be a162 543e 1fc6 033f e611 ffbd
00000020: 76c8 87bc 7772 70be 751f 1c3f bcf9 8abe
00000030: 3c0d 30bd a3bc d6bd ec57 07be 4372 11be
00000040: 3d1f a0be 94ef 64be 9ce0 293e d1e5 32bd
00000050: c967 d03e b846 eabd e199 00be a656 323d
00000060: 2b10 163c b479 813d 40b9 45be 412f 38be
00000070: 8718 a43d 5c9f 1f3e 4fe8 a13d 311e 2dbe
00000080: 733d 3dbe 3ca2 e23d 873d 973d 6fc0 7fbd
00000090: 66be 47be 7386 63bd faaf 283e f822 a1bd
000000a0: 2b21 3b3e 7787 e0bd 7f1c e63d 44c8 063e
000000b0: 0936 0ebd c785 0b3b f237 453e fd4a 08be
000000c0: 41ba 19be 3e94 603d 3a9f 6d3d 5160 a5bd
000000d0: 85a8 eebe 5275 2d3d b779 6c3e 81dd 03be
000000e0: 3ca6 26be 8f61 62be b33e 353e 4dcf 823e
000000f0: 8b55 a43d 07e0 2ebe 8395 8cbd 53c7 c9bd
00000100: f983 0abd 393b f23d b916 02bd 96da 5ebe
00000110: 9def 11be 5ed9 803d 3371 c03d ab9f 87bd
00000120: 12b8 0a3e f302 4abe dce0 b7bd 8060 b53d
00000130: 7702 2dbe 3b5b 59be f779 7abd b109 1cbe
00000140: 2b20 043e de14 1bbe c322 2f3e 942d dfbd
00000150: 0a85 6e3d eeaa 9dbd 7ce9 593d 35f3 45be
00000160: 901c 233e b4d8 14be 1885 7a3d 223d 9b3d
00000170: b251 4c3e a133 89bd 3bca afbd fd3f 32be
00000180: 8937 49bc 521d f5bc 2133 bcbd 9971 45bc
00000190: f678 42bd 70af e5bd a089 48be a139 853d
000001a0: dff4 1cbd 4d49 e0bc a38f c33d a21a d03d
000001b0: d4de 3dbe b360 a13c ac65 0d3e 9926 9dbe
000001c0: 40e3 b4ba b702 8c3e 5ed6 8e3e 619a 17bf
000001d0: 31ef e7bc 816d 193e 6717 af3c 750b 05be
000001e0: c70b 693d 4827 56bd 8990 2c3e 588d 2d3e
000001f0: cbf7 113e 3802 80be ba7f 10bd 6d7e 7ebd
00000200: e556 ef3d 4566 3dbc 5bc9 b4bd 4f1f 11be
00000210: 541c cc3c 2310 cc3d dc5b 43be 9b60 4c3e
00000220: d8ad 2e3e 4d0f 0c3d 56e8 3a3e a701 273e
00000230: 6313 56be 3b2e 0d3e 5abf f33c 1864 1a3e
00000240: 78a4 ae3d 3bef 083d 540f 5f3e 514d 06be
00000250: 9952 03bd dc14 2fbe aa79 ab3a ab80 193d
00000260: 20ef c33d d5bd d7bd 2837 7abe c96f ba3d
00000270: 6549 a03d e8af 9ebd c7d9 af3d f34b 3cbd
00000280: c3ba 0a3d f12d 16be 08b2 e6bd 0e1d 963d
00000290: bd10 bebd 4fd8 2f3d bd89 103e 9b6b 04bc
000002a0: b152 1bbe b2a6 933d 5305 5a3e 417d dbbd
000002b0: 1c66 4d3c 9f37 2d3e 9082 533e a0d2 043e
000002c0: 563b 4fbe 8bbb a23b 2e8e c13d 91b8 2dbe
000002d0: 6605 4e3e c03b 94bd d1a3 ee3d f954 4e3e
000002e0: f000 5fbd ddbd 703c 7c32 343e 78e6 d83c
000002f0: 2451 ee3b 9c7e 0fbe f773 913b 19ab 86bc
00000300: 083d ecbd c18e 603d 88e3 16be 2b2e 4cbb
00000310: de91 293e a1e5 a3bc 7b3a dabd 30f7 593c
00000320: fd38 cf3d 03d0 9ebd ed65 a6bd bfef 693d
00000330: 510e 023d 3b6b 5d3e 5a1e 1dbe d952 313e
00000340: 4016 ba3c f29f 10be f010 a13d c24a 6dbe
00000350: 5ef2 1c3e 73fe 603e 2a40 e03a 2da5 f43d
00000360: 4889 d83e 07cd a73d ac58 fbbd e7eb 0cbd
00000370: fb5c 5c3f 937e 01bb 4e9a 0bbe b3ec 0fbe
00000380: d444 16bd 264e 59bd 6fb7 aebe b0b9 89be
00000390: 3761 153e 4339 073e 3720 443e 3aa9 2b3e
000003a0: 7bf0 dc3d 2960 613d 1110 823e fa9e 1fbe
000003b0: 32ac 663e 4bd9 f13e 97d2 a0be 8943 96bd
000003c0: cc57 90bd f6e6 923e e4be d43c 8fd2 9e3e
000003d0: 25e6 1cbd a057 a93e e9bb 93bd d33b 73be
000003e0: 923a 643d ab8b 82be 0013 90bd 4ea2 473d
000003f0: 5111 453d 13db 44bd 2f44 8b3e 9f48 cc3c
-0.053866267 0.07297418 0.0023538014 0.1363871 -0.12785578 0.20740749 0.51474184 -0.12454586
-0.01657508 -0.23481165 0.609855 -0.27143657 -0.04298137 -0.10485198 -0.13217133 -0.14203744
-0.31273833 -0.22357017 0.16589588 -0.0436762 0.40704182 -0.1143927 -0.125587 0.043539666
0.009159128 0.06322041 -0.19308949 -0.17986776 0.08012491 0.15588135 0.079056375 -0.16906048
-0.18480472 0.110661 0.07384782 -0.06243938 -0.19506225 -0.055548143 0.1647338 -0.07867998
0.18274371 -0.10963338 0.11235904 0.13162333 -0.0347195 0.0021289454 0.19259623 -0.13309856
-0.15012456 0.054828875 0.05801318 -0.080750115 -0.46612945 0.042348213 0.23093306 -0.12877466
-0.16274351 -0.22107528 0.17699699 0.25548783 0.080241285 -0.17077647 -0.068644546 -0.09852471
-0.033817265 0.11827702 -0.03175995 -0.21763071 -0.14251561 0.062914595 0.09396591 -0.06622251
0.1354678 -0.19727688 -0.089784354 0.088562965 -0.16895472 -0.21226208 -0.06115147 -0.15238072
0.12902896 -0.15144679 0.17103104 -0.10897365 0.058232345 -0.07698618 0.053201184 -0.19331057
0.15928864 -0.1453579 0.061162084 0.075800195 0.1995304 -0.066993006 -0.08583494 -0.17407222
-0.012281307 -0.029921208 -0.091894396 -0.01205101 -0.04747864 -0.11215103 -0.1958375 0.065051325
-0.038319465 -0.027378703 0.09548881 0.1016133 -0.18542033 0.01969943 0.13808316 -0.3069351
-0.0013800636 0.2734582 0.27897924 -0.5921994 -0.028312298 0.14983179 0.021373464 -0.12992652
0.056895997 -0.052283555 0.16852011 0.1694845 0.14254682 -0.25001693 -0.03527806 -0.062132288
0.11686496 -0.0115600275 -0.08827468 -0.141721 0.024915852 0.09964015 -0.1907801 0.19958727
0.17058504 0.03419428 0.18252692 0.16309224 -0.20905833 0.13787167 0.02975433 0.15077245
0.08527464 0.033431273 0.21783191 -0.13115431 -0.032061193 -0.17097801 0.0013082523 0.037476223
0.09567094 -0.105342545 -0.24435103 0.091033526 0.07826499 -0.07748395 0.085864596 -0.04597087
0.033869516 -0.14665963 -0.112644255 0.073297605 -0.09280536 0.042930897 0.14115043 -0.008082296
-0.15168263 0.07209529 0.21291094 -0.1071725 0.012536552 0.16915749 0.20655274 0.12970972
-0.20237479 0.0049662045 0.09450947 -0.16964938 0.20119247 -0.07237959 0.11652339 0.20149602
-0.054444253 0.014693704 0.17597383 0.026477084 0.0072728563 -0.14013141 0.004438873 -0.016439008
-0.11535078 0.05482364 -0.14735234 -0.0031155448 0.1655955 -0.020006957 -0.106556855 0.013303563
0.101182915 -0.07754519 -0.081249095 0.057113405 0.031751934 0.21622936 -0.1534361 0.1731676
0.022715688 -0.14123514 0.07864559 -0.23173049 0.1532683 0.21972065 0.0017108966 0.11945567
0.42292237 0.08193403 -0.12272772 -0.03440466 0.86079377 -0.0019759282 -0.13633081 -0.14055137
-0.036686733 -0.053053044 -0.34124324 -0.2689948 0.14587866 0.13205437 0.19152914 0.16763774
0.107880555 0.055023346 0.25402883 -0.15587988 0.22526625 0.47236094 -0.31410667 -0.073371
-0.07047996 0.28691834 0.02596993 0.31020018 -0.03830542 0.33074665 -0.072135754 -0.2375329
0.05571992 -0.25497183 -0.07034874 0.04873877 0.048112217 -0.048060488 0.27200457 0.024936972

model.0.bias f4 [64]
00000000: 1f73 343e 81f3 42be 22c3 43be 6209 c03d
00000010: 7703 8cbc cf6f 40be 51c4 b63c b6ea ac3d
00000020: 7ca5 4b3e 0748 1fbe 000b a03d 7b82 36be
00000030: 2e52 d93c d97a 2ebd ecca 143e 46d5 32be
00000040: d273 1b3e c66e f73d 24a6 27be 7569 fbbc
00000050: fa17 30bc db97 47be 43c5 ffbc c441 ceb9
00000060: c70d 0f3e 2a02 42be 4180 41be bcd4 9dbc
00000070: c59b 20be a5b6 d7ba 74b5 81bd bcf2 303d
00000080: 30cc 3ebe b0b8 503e df68 653e 87c5 ebbd
00000090: 8600 5a3e 6d78 643d c27f be3d b090 d9bd
000000a0: 09af c3bd 81a8 09be 0e6f 033e dadb f0bd
000000b0: ce8a 273e ead3 61be 92f6 8fbc 305c 3dbe
000000c0: a18e 8fbb a1de 293d f361 2ebe 7329 ee3d
000000d0: 79a8 1fbe ddec 0d3e f0a1 14be 2228 9a3d
000000e0: 3449 17bc ee1e 4b3e 4ca3 3cbe 76b6 0ebe
000000f0: 62cb 3cbe fb27 5b3e 0ac2 5abe 1b0d 15be
0.1762204 -0.19038202 -0.19117406 0.0937679 -0.017091496 -0.18792652 0.022310408 0.08443205
0.19887346 -0.1555482 0.07814598 -0.17823212 0.026528444 -0.042597625 0.14530534 -0.1746417
0.151809 0.12081675 -0.16371971 -0.030689934 -0.010747904 -0.19491522 -0.031221991 -0.0003934038
0.139701 -0.18946138 -0.18896581 -0.019266479 -0.15684421 -0.001645763 -0.063334376 0.04320024
-0.18632579 0.20382953 0.22403286 -0.11512285 0.21289262 0.05577891 0.093017116 -0.106233
-0.0955487 -0.13443185 0.12835333 -0.11760683 0.16361544 -0.22053495 -0.017573629 -0.18492198
-0.0043810164 0.04147208 -0.17029552 0.116289996 -0.15591611 0.13859887 -0.14514899 0.07527186
-0.009233762 0.19836017 -0.18421668 -0.13936791 -0.1843696 0.2140197 -0.21363083 -0.1455578

model.2.weight f4 [32, 64]
00000000: 280b adbd bc2f d33d 38cc 9fbb 0843 fcbc
00000010: e09d bf3b ff06 573d e042 023c 6c14 fdbd
00000020: cc62 823d 4cf5 0ebd 789f b0bc 21c4 7a3d
00000030: e05d aebc 4bd4 3f3d 50fc 223c 58bb 9abd
00000040: 7652 8ebd 1bfd ae3d 1096 dabd 707d fe3d
00000050: 32dc f1bd 5077 d93d 6079 ff3b 2024 1ebd
00000060: f835 87bd 0171 7a3d b80a c53d b2a0 f03c
00000070: 8c2c bbbd fedc 813d 2fe1 193d 28b1 af3d
00000080: 588c 1fbd d8d0 423d 58d5 25bd 3037 083d
00000090: 504a a9bc 446f 023d 7c6b 7fbd 6a00 fcbd
000000a0: 5775 13bd 1e61 94bd 541f d2bd 9c6b c73d
000000b0: bc52 983d 9aca ba3d 48f4 913d adde d1bc
000000c0: b129 78bd d7a1 623c 39fb 46bd f455 55bd
000000d0: 1a64 9f3d 706f ed3c 07a1 173c 889a 1f3d
000000e0: 9231 97bd 45b7 663c 53d2 e43c e463 793d
000000f0: a82e 2ebd f694 c73d 0086 d73d db38 2bba
00000100: 8e3d cb3d fe2f ea3d dc3f 5b3d 36b1 8fbd
00000110: b0bc b13d 4673 8ebd 7051 063c ba96 d93d
00000120: b094 88bd 28d7 e4bd 064d c33d 180e d03c
00000130: 982f 453d 8817 a23d e07f c43c c0cc bebb
00000140: 9e5b f5bd 3c07 173d e20d d03d 3058 0dbc
00000150: f017 eebd e613 80bd 3c00 f4bd 64f2 79bd
00000160: 3401 f03d e469 e93d f8d4 513d f2a5 a2bd
00000170: 28de 1d3d 7864 bc3d 0485 ffbd cc9c 03bd
00000180: 40b3 d83d 3084 86bd e062 863d 40b2 113c
00000190: d08a 4b3c ec65 d23d cca1 a43d 68de f0bc
000001a0: ee99 c4bd 54d9 793d 00b8 b8bd 4cb6 9a3d
000001b0: f0a6 b5bc 00f8 d9bd a27e f4bd 64ec 13bd
000001c0: 44f2 bc3d fcf7 57bd f014 9c3c e0fe 3bbc
000001d0: 5863 9cbc 300d fd3d 2efc e33d 6a31 cfbd
000001e0: 787b afbd 64b5 643d 989b 84bd e8ea c4bc
000001f0: 9c4b 31bd 30e2 253c f04b 493c 58f3 70bd
00000200: 940a f83d 10de 5bbc 7ff7 74bd bc3a dd3d
00000210: 360a eb3d aaf5 9ebd 306c b23c 19b8 c0bd
00000220: d49d b8bd 05d2 ec3d 81e4 6dbd db5b 243d
00000230: 433d 0a3e 9460 a1bd 629a f13d a343 58bd
00000240: 382e 39bd 1deb 063c 0835 19bd 7898 a8bd
00000250: b83d a0bc cacc ed3d 4058 5ebd b468 cfbd
00000260: caef 4c3d 0d0b 813d 8453 0dbd dd4d 343d
00000270: 8a78 07be e312 d33d 0a1b cebd 6c9c fb3d
00000280: 04a0 013d 804b 18be 6b82 dbbd e822 c8bd
00000290: 4011 edbb 401c 763b 8c90 a83d 04a9 8a3d
000002a0: 3c6f 243d 25f9 293d b4e3 903d 5a41 c43d
000002b0: ab97 57bd 6f66 aabd d85a b23c 47e2 85bd
000002c0: 12aa 593c 7b8e a93d d942 49bd 6c5c fc3b
000002d0: 54b2 c33d 4e85 58be a977 5ebd a0e5 b23b
000002e0: a20f c5bd 574b 893d 979b 8fbd 38aa 32bd
000002f0: 26c4 983d 4f90 563d c74b b13d 1f72 183d
00000300: 9700 aabd e0d7 643c 2e1d b93d 8408 05bd
00000310: 7964 bc3d 1e90 e33d d8c5 9abc bd83 4e3d
00000320: a224 993d af33 243e fe23 a6bd 343f 02be
00000330: 7da9 fbbc 2a75 153d 0e8c da3d 8548 303d
00000340: 1821 6d3a 0043 eabc 8925 82bd c802 0c3d
00000350: dadb e13d 000d ca3a 1c07 a83d 3977 1a3c
00000360: 8ee9 173e 7993 143e d8b8 b43d fdf9 003e
00000370: 4a25 e83d f0eb 3d3d eb0f b5bc 7ef2 e63d
00000380: 70e5 f33d 7fc3 15bd 52ca 223d 8506 45bc
00000390: 548b 4ebd 4041 03bc f285 85bd 32c7 043e
000003a0: 91b9 443d 5fee 693e 1c2b bf3d 8c99 c43d
000003b0: 107c d1bc a1ed 8cbd 5d33 7dbd b12a deba
000003c0: b018 0a3e 232a 783e 6bdd 933d f551 c8bd
000003d0: d002 87bc eb16 133d aebb a43d 50a9 69bd
000003e0: 00db ae3d ad2f 9ebe d30b 7f3d 0090 073d
000003f0: 0021 7fbb 73e6 01bf 31c0 143e c445 253e
-0.084493935 0.10311839 -0.0048766397 -0.030793682 0.0058476776 0.052496906 0.007950515 -0.12357411
0.063665 -0.034901902 -0.021560416 0.0612222 -0.021284997 0.046833318 0.009947851 -0.07555264
-0.06949322 0.0854437 -0.106731534 0.12426269 -0.11809577 0.1061846 0.0077964514 -0.03860867
-0.066020906 0.061142925 0.09621185 0.0293735 -0.09139356 0.06340979 0.037568267 0.08578712
-0.0389522 0.04756245 -0.040486664 0.033255756 -0.020665318 0.031844392 -0.062358364 -0.123047665
-0.036000576 -0.07245086 -0.102598816 0.09737322 0.07437655 0.091206744 0.07126671 -0.025618875
-0.060586635 0.013832531 -0.04857943 -0.052083924 0.07782765 0.028983802 0.0092547005 0.03896573
-0.07382502 0.014081781 0.027932322 0.06088628 -0.042524964 0.09745209 0.10523605 -0.00065316044
0.0992385 0.11434935 0.053527698 -0.07016222 0.086785674 -0.069555804 0.008198127 0.10624452
-0.06668985 -0.1117385 0.095361754 0.025397345 0.048141092 0.079146445 0.023986757 -0.005822748
-0.11980365 0.036872134 0.10158898 -0.008626983 -0.116256595 -0.06253795 -0.11914107 -0.061022177
0.117189795 0.1139715 0.051228493 -0.07941808 0.038541943 0.091988504 -0.124765426 -0.032131955
0.10581064 -0.065681815 0.06561828 0.008892596 0.012423232 0.10273346 0.08038673 -0.029402927
-0.09599672 0.060998276 -0.0901947 0.075543016 -0.022174329 -0.10643005 -0.11938216 -0.03611411
0.09225896 -0.05272673 0.019052953 -0.011474341 -0.01909034 0.12356031 0.11132084 -0.10116847
-0.08568472 0.05583705 -0.0647499 -0.024037793 -0.043284997 0.010124728 0.012286171 -0.05882582
0.121113926 -0.013419643 -0.059806343 0.10802218 0.11476557 -0.077617005 0.021780103 -0.09410114
-0.09014478 0.115634955 -0.058079246 0.040126663 0.13499932 -0.07879749 0.11797024 -0.05279888
-0.045210093 0.008234766 -0.03740409 -0.08232206 -0.01956068 0.11611326 -0.05428338 -0.101273924
0.05003337 0.06300936 -0.034503475 0.04401957 -0.13229576 0.10306337 -0.10063751 0.122856945
0.031646743 -0.14872551 -0.10718235 -0.09772283 -0.0072347224 0.003755346 0.08230695 0.067705184
0.040145144 0.04149737 0.07074681 0.09582777 -0.052634876 -0.08320319 0.021771833 -0.065372996
0.013285177 0.08279129 -0.049136017 0.0077014472 0.09555498 -0.21144602 -0.054313336 0.0054595023
-0.09622122 0.06703823 -0.07012098 -0.043619365 0.07459287 0.052383717 0.086570315 0.03721821
-0.08300894 0.013967484 0.09038769 -0.032478824 0.09198851 0.111114725 -0.018893167 0.050418604
0.0747769 0.1603534 -0.08112334 -0.12719423 -0.030720467 0.03648869 0.106712446 0.04303791
0.0009045764 -0.028596401 -0.063548155 0.03418234 0.110282615 0.0015415251 0.08204481 0.009427839
0.14835188 0.14509381 0.08824319 0.12595363 0.11335237 0.046367586 -0.022102317 0.112767205
0.11908996 -0.036563393 0.03974373 -0.01202548 -0.050425842 -0.008011162 -0.06519689 0.12966612
0.048028532 0.22844838 0.09334394 0.09599599 -0.025571853 -0.068812616 -0.061816562 -0.0016949979
0.1348598 0.24234824 0.072199665 -0.09781257 -0.016480833 0.03591053 0.080436096 -0.057046235
0.08537865 -0.3089575 0.062267136 0.033096313 -0.0038929582 -0.5074226 0.1452644 0.16139895

model.2.bias f4 [32]
00000000: ffb3 08bc 8827 90bc b918 9e3d d4a0 da3c
00000010: 2bf1 3abc d641 883d 488b 3cbd 74e5 12bd
00000020: 1088 413d f311 71bd 365c a6bd cb2d 053e
00000030: 0e7f c63d 3f8c d6bd 2879 a8bd 7c17 bf3d
00000040: 35e4 183c 94e1 a5bd 8f74 c0bd 20f3 a73d
00000050: 9a85 16bd fa4b bcbd a0b3 723d 8fcb 893d
00000060: 407c 3dbc d544 ccbd 7355 23bd db91 6fbc
00000070: 808d 8ebb ea6a c93c d28f 9dbd e874 dd3d
-0.008343696 -0.017596975 0.07719559 0.026688017 -0.011410038 0.06653182 -0.046031266 -0.035863355
0.0472489 -0.05885501 -0.081230566 0.1300575 0.096922025 -0.104759686 -0.08226234 0.09330651
0.009331753 -0.08099666 -0.09397232 0.08200669 -0.036748506 -0.09194179 0.059253335 0.06728279
-0.011565268 -0.09974066 -0.039876413 -0.014622177 -0.004350364 0.024587113 -0.07693447 0.10813314

model.4.weight f4 [2, 32]
00000000: ded0 34bc 8261 c33c eff9 0e3e dca5 9cbd
00000010: 62a7 1f3e afb7 26bc d1fd 183e 7655 a63d
00000020: 43a0 98be b387 673d 3a6d 0a3e d964 63be
00000030: 5bec 0f3e 1152 1f3e d8d7 33bb 00a6 17bd
00000040: c29c b6bd b568 2abe 3fff 4bbe 0feb 87be
00000050: b871 263e 8b1f eebc f6a1 0ebe e450 063d
00000060: 6814 0dbe abd4 d23d 6998 2bbe aa85 023e
00000070: 073d 29be 4b89 103e 5a4d 28be a284 9b3d
00000080: 4cae 043e 5dd2 6c3c 5671 043d 5aab 503e
00000090: 69b0 8abd d10e 4b3e dc8f 073e 311c 213e
000000a0: 9712 b3bd a290 7bbe a7f5 8d3d 44fa 59be
000000b0: d85c bbbd 1efc 053e 66f4 d63d fa47 34be
000000c0: 3bf4 9e39 6963 73be 0d61 023e 1d7b 70be
000000d0: b1b1 76be 4c21 123e 4e35 62bc 9abd eebd
000000e0: ae9d 963d e37b 09be e9ed 273e 6eb9 d53d
000000f0: 365b 433d 29ce b63d 9274 a7bd 0d37 0abe
-0.011036126 0.023850206 0.1396253 -0.07648823 0.15591195 -0.0101756295 0.14940573 0.08121769
-0.2980977 0.056525897 0.13518229 -0.22206439 0.14055006 0.1555865 -0.0027441885 -0.037023544
-0.08916618 -0.16641505 -0.19921587 -0.26546523 0.16254318 -0.029067775 -0.1392897 0.032791987
-0.13777316 0.102944694 -0.16757359 0.12746301 -0.16527186 0.14114873 -0.16435757 0.07593657
0.12957114 0.014454451 0.032334648 0.20377865 -0.06771929 0.19829871 0.13238472 0.1573341
-0.0874378 -0.24566892 0.0693162 -0.21286875 -0.09148568 0.13084456 0.10495834 -0.17605582
0.00030318074 -0.2376839 0.12732334 -0.23484464 -0.24091221 0.14270514 -0.013806654 -0.116572574
0.07354294 -0.13426165 0.1639935 0.104357585 0.047694407 0.08926041 -0.08176531 -0.13497563

model.4.bias f4 [2]
00000000: b3a6 143e e996 b73b
0.14516716 0.0056027067
